src/dnn/saved_model.pth (torch, 239997 bytes, 20 tensors)

fc1.weight f4 [128, 178]
00000000: 6572 b3bd b394 363e 4d1f 9ebc c971 a1bd
00000010: b873 ab3c 31ea d53d 319e dc3e e56e c03e
00000020: d97e 0b3f f797 7e3e d72a 72be d51e c6be
00000030: aa88 5ebe f5bc 5e3e 1b4a 3e3f b57a 783f
00000040: a599 7e3f 5ea4 6d3f 2564 4f3e ee09 07bf
00000050: a392 82bf 8d46 8bbf c930 78bf aa12 133e
00000060: 804b 583e 8349 8a3e 8fae 1f3c 245a ca3d
00000070: f12c 703c edec 24bf 4698 0abf 7634 33be
00000080: 0797 86bd 5be4 1bbd 77fc 96bd ca4b ef3d
00000090: ac01 d9bc e6cc 8abd 67c6 c73e ba16 adbe
000000a0: fd05 85bf e0c8 aebf 8e73 72bf 9815 62be
000000b0: ef27 4f3e 5088 b93e dbae 8bbd e341 3c3e
000000c0: 8ee9 f63d 6e2c 8d3d 391b ed3d c68a 4dbe
000000d0: 7185 0abf d6db e9be a290 89be eeda e83e
000000e0: ec25 0e3d 72db 8bbe e018 f4bd 2fb9 ff3e
000000f0: c17a 383f 92a8 693f 4fd6 c33f eb04 3f3f
00000100: 4e0f 323f d2fa f33d d4f6 37bf e1d7 68bf
00000110: bede 6abf 53f6 8ebd cf18 343e 8eb6 5e3f
00000120: 4926 a33f b3ee 843f 2c51 88be 0433 04bf
00000130: 42d4 f9be 6e80 b7bd 012f 84bd 58bc babe
00000140: c0d0 2ebe e0b7 0b3e 5e08 3d3f cb3e 513f
00000150: 0375 1d3f 0d91 583d ee94 4abd 00c3 953e
00000160: 80de a4bd 5f7d 8c3e 7fc7 f1bc cba7 a1bd
00000170: 9882 18be 8314 cd3d 1efc e73e 9c9b b93e
00000180: 1408 293d 0cd4 ad3e 7563 003f ffa1 eb3e
00000190: 9000 6ebe b4bf 38bf e2f9 b6bf ffc6 1dbf
000001a0: 9b16 3dbe 64ae afbe 06cf cabe bf91 31bf
000001b0: 3fff adbe 8d41 b83e b506 5f3f 7685 173f
000001c0: d978 573e a031 8dbd 78a6 61be 6726 0dbf
000001d0: cafe a8bf f576 46bf 94e8 7ebe 1daf afbe
000001e0: 74d7 1bbe 4d66 f6be 9ff9 09bf a5e2 51bf
000001f0: 688c 33bf 0d25 f3be 1723 0bbf b753 3cbe
00000200: 2303 103f 8687 0a3f e0fc 8e3e 3065 043e
00000210: 3a31 36bc a160 e43c 7e73 cf3e 0b6f 303f
00000220: c2f4 5d3f 5649 133f a466 113d c247 b4be
00000230: 5e67 0abf e678 1bbf a85d 2f3e 8d14 dfbd
00000240: e11c 9e3e e229 adbe 6d06 b73e 5a76 563d
00000250: eda1 173e 2df4 553d 2112 89be 0928 92bc
00000260: cf81 7cba dcf6 5a3f 1b6d c73f 4ade ad3f
00000270: 974e 933f 4a77 553d 6e26 73bc f64d c13e
00000280: 4ae6 6e3e 6eb8 4ebf efc2 2dbf f1b4 45bf
00000290: 2250 13bf 3d2c debe e803 f4bd 9d72 e3bd
000002a0: 41a2 e63c 75c1 da3e 40fb 4a3e 2900 373f
000002b0: e7f8 2c3f b027 6a3f 705c 1f3f 316c 94be
000002c0: 0f16 37bf cea4 75be 3031 0240 1b63 0940
000002d0: 970b a53f 4a5e cd3c a9da b3be ffd6 efbe
000002e0: 2046 33be 30ef 1abe 2e65 f03e f4ec 2bbd
000002f0: 072b 8c3e d933 fa3c f852 44bd 23bf 10bf
00000300: 30a4 46bf 8fd5 d7be c45f 25bf 7120 ecbe
00000310: 989b f9be b1e0 8fbe cf29 cebd 5e15 00be
00000320: c1d0 bc3d d5a8 03bf 95a7 a2be eccb 8d3e
00000330: 6893 343f 9a5d 663f 93e4 a83e 0a3b b93e
00000340: bd03 18be 660b c4be b092 44be 26d2 293e
00000350: 3886 073f 677b 143f 50e0 0f3f 4f58 a2be
00000360: 84b4 0abf 3bd1 21bf 27fb edbe 8764 e2be
00000370: 1599 d6be df8d e2be 3895 3ebf 18da a4be
00000380: e668 4b3e 9ad0 a53e 3a4e 91be 6cb9 16bf
00000390: 5a18 fdbd 184d 96be cd45 8e3d 8c60 b23e
000003a0: ef8b 953e d9ef 853e b50c 1dbe 4482 27bd
000003b0: ff11 abbe 06ae 00bd 53a6 20be 1ac0 01be
000003c0: 8bfc b13d b6fa 9c3e 0517 fd3e 1e63 ca3d
000003d0: ab17 3bbf a7d3 25bf 83cb 20bf c88c 5bbe
000003e0: 02a3 5cbe 7b10 00bf 53ab 64bf 436c 3abf
000003f0: d780 443f 7389 953f 1cda a33f 9466 6d3f
-0.087620534 0.17830162 -0.019302035 -0.07883031 0.020929202 0.10445059 0.4308944 0.37584606
0.5449043 0.24862657 -0.23649155 -0.38695398 -0.2173182 0.21751769 0.74331826 0.97062236
0.9945319 0.9282893 0.20253046 -0.52749527 -1.0201 -1.0880905 -0.9694944 0.14362589
0.21122551 0.2700921 0.009746208 0.09880474 0.014659152 -0.6442402 -0.541386 -0.17500481
-0.06571775 -0.038059574 -0.073723726 0.116843775 -0.026490055 -0.067773625 0.39018556 -0.33806401
-1.0392452 -1.3655052 -0.9470757 -0.2207855 0.20230077 0.3623681 -0.068204604 0.18384509
0.12056266 0.0689324 0.11577458 -0.20072469 -0.54109865 -0.45675534 -0.2686816 0.4547953
0.034704134 -0.2731586 -0.11918807 0.4994597 0.7206231 0.9127284 1.5299777 0.7461688
0.69554603 0.119130746 -0.71861005 -0.90954405 -0.9174613 -0.06980576 0.17587589 0.86997306
1.2746059 1.0385345 -0.2662443 -0.51640344 -0.48794752 -0.08960043 -0.06454278 -0.3647182
-0.1707182 0.13644361 0.7384089 0.8173644 0.6150667 0.052872706 -0.049458437 0.29250336
-0.08050251 0.274394 -0.029514072 -0.07893332 -0.14893568 0.10013678 0.45309538 0.36251533
0.04126747 0.3395084 0.5015176 0.4602203 -0.23242402 -0.72167516 -1.4295008 -0.6163177
-0.18465655 -0.34312737 -0.3961107 -0.69363016 -0.339838 0.3598751 0.8711961 0.5918802
0.21042193 -0.06894231 -0.22036159 -0.5513672 -1.3202755 -0.77525264 -0.24893409 -0.34313288
-0.15218908 -0.48124924 -0.53896517 -0.8198646 -0.7013612 -0.47489205 -0.5435042 -0.1839131
0.56254786 0.5411304 0.27927303 0.12929225 -0.011120135 0.027878108 0.405178 0.6891944
0.86701596 0.57533777 0.035498276 -0.35210997 -0.54063976 -0.6073135 0.17125571 -0.108925916
0.30881408 -0.33821017 0.3574709 0.052358963 0.14807864 0.052234817 -0.26771644 -0.017841356
-0.000963238 0.8553293 1.5580171 1.3583462 1.1508359 0.052115716 -0.014840705 0.37754792
0.23330036 -0.8075017 -0.6787557 -0.7722922 -0.5754415 -0.43393126 -0.119148076 -0.11105845
0.02815354 0.4272572 0.19822407 0.7148462 0.67567295 0.9146681 0.62250423 -0.28988793
-0.71518034 -0.23988649 2.0342522 2.146674 1.2894162 0.025069375 -0.35127762 -0.46843717
-0.1750722 -0.15130305 0.46952194 -0.041974023 0.27376577 0.030542301 -0.047930688 -0.5654165
-0.7759428 -0.4215512 -0.6459925 -0.461185 -0.4875152 -0.28101113 -0.10066568 -0.12508151
0.09219504 -0.5142949 -0.3176848 0.27694643 0.70537424 0.89986575 0.32986888 0.36177856
-0.14845176 -0.38289946 -0.19196582 0.16584072 0.52939177 0.580008 0.5620165 -0.31708
-0.54181695 -0.63209885 -0.46480677 -0.4421732 -0.41913667 -0.44248864 -0.7444644 -0.32197642
0.19864234 0.32385713 -0.28379995 -0.5887668 -0.1235816 -0.29355693 0.06946907 0.34839284
0.29208323 0.26159552 -0.15336879 -0.040895715 -0.33412167 -0.03141596 -0.15688448 -0.12670937
0.08690747 0.30660027 0.49431625 0.09882186 -0.7308299 -0.6477608 -0.62810534 -0.21440423
-0.21546558 -0.5002515 -0.8932392 -0.72821444 0.76759094 1.1682571 1.2800937 0.92734647

fc1.bias f4 [128]
00000000: 7db9 90bd 8d89 203d 3037 3dbd eab4 2c3d
00000010: 6e94 02bd b96a 853d 1785 163d a3d1 943c
00000020: c823 303c b914 f83b 6308 2a3d 6451 e6bc
00000030: d220 773d ed96 b53c fa9d 563d a52d 153c
00000040: e740 51bc 4b3b ff3c d574 163d 9f92 e9bc
00000050: 42cb ed3c 534f 1abd 59b8 0fbd ea47 7dbd
00000060: ca2e 883d d688 093d 5e26 3bbd de1f 0d3d
00000070: 4cc5 093d 4b4c 523d 9bae d13c 7523 ae3b
00000080: e565 98bd 981c 473d 0603 573c b624 61bd
00000090: 0453 0d3d c547 88bd 0390 973a 4b44 0ebd
000000a0: 2674 7abd 2f99 cabc f5ef c5bc fcd5 303d
000000b0: fcfe a8bc 7e60 3cbd 6d87 75bc 8a15 333d
000000c0: 379e 58bd 57c6 0c3d d9b2 8dbd 080e 84bc
000000d0: 4281 37bd e0da 6e3d 9843 28bd 79b5 783d
000000e0: 0bb3 85bd 3008 623d ecd4 a33c 2ba6 743d
000000f0: bddf a53c 7cfe 943c 4280 253c 1654 063d
00000100: c28b 903d f430 60bd 15b8 5ebd ad5d f73c
00000110: d97d 82bb 77ed 003d 3a25 80bd 9741 afbc
00000120: 20bd 1f3d b281 32bd f479 3a3d 2129 103c
00000130: e07a 003c 8af0 073d cb7b f13b 6ed1 cc3c
00000140: 9e8e 88bc 018b dcbc 9a94 bdbb 881d 003a
00000150: d94b 21bd a6bd 36bc 43b8 353c 82fd 713c
00000160: cc3b fabc 0a46 a5bc 14ca ecbb 9802 753d
00000170: 78bb 1bbd 2fb1 683d a88c 12bd 6058 bf3b
00000180: 39f6 943d 9b89 3dbc 8095 6cbd 025e 443d
00000190: a6a6 243d 180b 50bd f98b 3c3c 60d8 1cbd
000001a0: 0c82 6d3d bd52 10bd 57c1 873d 2380 0fbd
000001b0: fdeb 73bd 4bba 113d d512 843d 3333 c23c
000001c0: 3306 173d 8c9f 21bd e7f1 95bc 1dde d03c
000001d0: 8396 9ebc da45 01bd f902 7cbd 1892 513d
000001e0: ffa0 b4bc 0484 e5bc 3ee1 a5bc 82ea 64bd
000001f0: fa79 8bbd 2e26 7cbd 5cf2 0d3d e8c2 3cbd
-0.07066629 0.03919368 -0.04619521 0.04216472 -0.031879835 0.06514496 0.036748018 0.018166369
0.010750718 0.0075708297 0.041511904 -0.028114982 0.060334034 0.022166694 0.052396752 0.009105121
-0.012771822 0.031156203 0.036732513 -0.028512297 0.029027585 -0.037673306 -0.035087917 -0.06183616
0.06649549 0.033577763 -0.045690887 0.03445422 0.033635423 0.05134229 0.025595954 0.0053142854
-0.0744131 0.048611253 0.013123279 -0.05496665 0.034502998 -0.06654314 0.0011563305 -0.034733098
-0.061145924 -0.024731247 -0.024162272 0.04317282 -0.020629399 -0.04599046 -0.014985901 0.043721713
-0.05288526 0.03436884 -0.06918878 -0.016119972 -0.044801004 0.058314204 -0.041080087 0.06071994
-0.0652829 0.05518359 0.01999899 0.059728783 0.020248288 0.018187754 0.01010138 0.032795034
0.07057907 -0.054734185 -0.054374773 0.030196035 -0.0039822874 0.031476464 -0.062571004 -0.02139358
0.038998723 -0.04358072 0.04552646 0.008798868 0.007841796 0.03318838 0.0073694936 0.025002208
-0.016669568 -0.026921751 -0.005785537 0.0004887213 -0.039378975 -0.011153614 0.011091295 0.014769914
-0.030546091 -0.020174999 -0.007226238 0.059816927 -0.03802058 0.0568096 -0.03577867 0.0058393925
0.07273526 -0.011568452 -0.05775976 0.047941215 0.04019799 -0.05079183 0.011507981 -0.03829229
0.05798535 -0.035235155 0.066286735 -0.03503431 -0.059551228 0.035578053 0.064489044 0.023706054
0.036871146 -0.039458796 -0.018303825 0.025496537 -0.019358879 -0.031560756 -0.061526272 0.051164716
-0.022049425 -0.028017052 -0.020249005 -0.055887707 -0.068103746 -0.06155985 0.03465496 -0.046084315

bn1.weight f4 [128]
00000000: 3ae3 a13f 58a4 af3f 6643 883f 6e73 c93f
00000010: 629d 8e3f 70fc ac3f 950d a53f 0be4 ad3f
00000020: d7cb 973f e3cc a53f 8514 a03f a5fd a23f
00000030: b960 993f da41 a33f 9b24 ce3f a2df a53f
00000040: 2d3e 9f3f 9af4 bc3f 4746 9a3f b757 ab3f
00000050: c0ce a83f f5b3 993f 846b b93f 45d0 ae3f
00000060: 51e6 b63f 6934 9f3f 3cbf a43f a674 a13f
00000070: 0ff1 8d3f b1f4 ab3f 50a9 bf3f f832 9b3f
00000080: 5cf8 c13f bfd8 b93f 5425 8b3f f34f 913f
00000090: 4333 933f 4556 ab3f f028 873f d380 c33f
000000a0: 5032 8b3f ce2f 9e3f 3c01 a13f 33cf cd3f
000000b0: db47 b43f 1d9b cb3f f24b b93f 05bf 863f
000000c0: f29a 913f 6699 b03f 4829 9c3f 989c a63f
000000d0: 2a27 a13f 4f0f a23f b459 ad3f ad72 9f3f
000000e0: c49f d23f 9cdd d73f b533 843f 9fc4 853f
000000f0: 3059 a53f ce9a a33f ea2f 8f3f e93e 953f
00000100: 80c3 953f 1653 a03f 4f7f 963f 819c ac3f
00000110: cd4c 923f 5a95 573f 635a a93f 7756 993f
00000120: bbad 953f fe37 9e3f ca3e a13f 50ea ae3f
00000130: e4e5 ad3f 9fa0 b43f bdd3 9b3f 87e2 903f
00000140: 395e 913f 6e11 a43f f0a9 9e3f 7c3c cc3f
00000150: 100e cc3f 9441 953f d452 8f3f abcd 9e3f
00000160: 4ddf 953f a2ca a23f 366f 943f 2592 9d3f
00000170: 0683 933f bd48 a03f e923 9b3f 90f1 a13f
00000180: 441a 9f3f 26fb a03f 7aab a63f cc0e b93f
00000190: 4a64 b83f a6b2 a83f c735 a13f 3653 b03f
000001a0: 38ea 873f 662c a23f 4e62 903f 078c 9f3f
000001b0: fe72 ad3f 8c9d a13f 3396 923f 19b1 9f3f
000001c0: c7e3 ab3f 7bc5 a83f cb30 913f 8f1c a93f
000001d0: aaf5 8b3f 19c2 963f 4ab3 743f 9b68 8e3f
000001e0: c41a 813f c229 993f 2731 b03f d714 8a3f
000001f0: 83d4 8f3f 5b00 a73f cea1 b33f c9ac d23f
1.2647469 1.3722029 1.0645568 1.5738351 1.114178 1.3514538 1.289477 1.3585218
1.1859082 1.2953151 1.2506262 1.2733656 1.1982642 1.2754471 1.6104921 1.2958872
1.244085 1.4762146 1.2052697 1.3386143 1.3188095 1.2008044 1.4485936 1.3657309
1.4289037 1.2437869 1.287086 1.2613723 1.108919 1.3434049 1.4973545 1.212493
1.5153918 1.4519271 1.0870767 1.1352524 1.1500019 1.3385702 1.0559368 1.5273689
1.0874729 1.2358339 1.2578502 1.6078857 1.4084429 1.5906712 1.4476302 1.0527045
1.137541 1.3796813 1.2200098 1.3016539 1.2590077 1.2660922 1.3543 1.2456871
1.6455007 1.6864505 1.032828 1.0450629 1.2917843 1.2781618 1.1186497 1.1659824
1.1700287 1.2525356 1.1757601 1.3485261 1.1429688 0.8421227 1.3230709 1.1979512
1.1693643 1.2360837 1.2597287 1.3665257 1.3585782 1.4111518 1.2173992 1.1319131
1.135688 1.2817819 1.2395611 1.5955958 1.5941792 1.1660638 1.1197152 1.2406515
1.1708771 1.2718089 1.1596439 1.2310225 1.152436 1.2522198 1.2120334 1.2651844
1.2429891 1.2576644 1.302108 1.4457641 1.4405606 1.3179519 1.2594537 1.3775394
1.0618353 1.2669799 1.128 1.2464608 1.3550718 1.2626204 1.1452087 1.2475921
1.3428887 1.3185266 1.1343015 1.321184 1.0934346 1.1777984 0.95586073 1.1125673
1.0086293 1.1965868 1.3765 1.078761 1.1236728 1.3046983 1.4033754 1.645898

bn1.bias f4 [128]
00000000: 6569 cd3e 158b e83e 768a 493e 724a a33e
00000010: a947 a03e fea9 a33e 072e e63e c711 063f
00000020: 9462 393d 1d05 de3e 9bfb e03e 3ce1 663e
00000030: 238d a33e 59c6 623e ce85 043f 5b75 fa3e
00000040: 9525 c33e cdc7 053f 8397 d63e a4e7 0d3f
00000050: 0971 fb3e d95c febd 9219 de3e e927 6d3e
00000060: cb93 1b3f 3c7e b63d c459 4c3e 7688 df3e
00000070: 9aa6 4c3e f655 953e edd2 20bf f854 fe3e
00000080: 9c0e 343f f9a5 9a3e 09dd 723e 8b66 b23d
00000090: 162b af3e 3b6f 643d 97ca 323e 04dd 293f
000000a0: 3e17 a53d 7465 113e 98e1 053f 8445 d93e
000000b0: 1f4f d03e 4683 e23e 050e c93e f64f 893d
000000c0: 3a99 4c3e 1240 903e 40f0 d93e cb98 9f3e
000000d0: 59d0 003f 6ec7 d43e 5035 ed3e 9704 173f
000000e0: 0c8e f43e 1384 063f 9f2a 393e 5632 853e
000000f0: ea8e 1c3f b49b a23e 6615 5f3e 2b6b f03e
00000100: bcde 1a3d 8ed8 103f 0f01 f63d 4fe5 9e3e
00000110: f3cc 023f 0fc0 5d3e 1dd5 163f 2cb3 283d
00000120: 7769 2f3f 6194 193f 97cc d83e 2457 793e
00000130: 64df b13e 0cfa 0c3f 4f5f c53d 07f4 073f
00000140: 3916 ba3e 7d8c 0b3f 1d72 063f 9acc b63e
00000150: 62b8 4b3f 1fdf 183f 9b54 c43e f742 283f
00000160: 9dec 653c 07f8 033f 189f a43e b6f4 1a3f
00000170: c06b 2e3e 9ab9 1d3f af47 303f 29f7 f93e
00000180: b051 2c3f 7188 d33d 54a0 cb3e be6b eb3e
00000190: cfbd 1a3f d637 063f 29f0 083d 60a0 253f
000001a0: a29e ef3d e7d3 043f 7993 8a3e 67cf 2b3e
000001b0: 79ee 3c3f bbcb 013f ea83 2f3e 9342 a43e
000001c0: 31d3 d03e ed78 e23e 6ce6 873e e453 8c3e
000001d0: 2581 fb3e c442 c03e 5551 683e b9b4 f33e
000001e0: 3c9c ad3e d94f 133f b125 273f a8ec b83e
000001f0: d948 983d 6a78 203f 5e39 0e3f b908 063f
0.40119472 0.4541861 0.19681725 0.31892735 0.31304672 0.3196563 0.4495699 0.52370876
0.045260027 0.43363276 0.4394196 0.22546858 0.31943616 0.22145976 0.5176667 0.4891766
0.3811461 0.52257997 0.4191247 0.5543158 0.49109676 -0.12420053 0.43378884 0.23159756
0.6077239 0.08910796 0.19956118 0.436588 0.19985428 0.29167145 -0.6282185 0.496742
0.7033479 0.30204752 0.2371713 0.08710965 0.3421256 0.05577014 0.17460094 0.6635287
0.08061074 0.14198858 0.52297354 0.4243585 0.40685365 0.4424078 0.3926851 0.067047045
0.19980326 0.28173882 0.4256611 0.3117126 0.50317913 0.41558403 0.46329737 0.5899138
0.47764623 0.5254528 0.18082665 0.26014966 0.6115557 0.31759417 0.21785507 0.46956763
0.037810072 0.56580436 0.12011921 0.31034324 0.5109398 0.21655296 0.58918935 0.041186497
0.685203 0.59992033 0.4234359 0.24349648 0.34740746 0.5506904 0.09637319 0.5310673
0.3634508 0.54511243 0.52517873 0.35702974 0.7957822 0.59715456 0.383458 0.6572718
0.014033464 0.51550335 0.3215263 0.6052965 0.17033291 0.6161133 0.6885938 0.4882138
0.67312145 0.103287585 0.39770758 0.45980638 0.60445875 0.5242895 0.03343216 0.6469784
0.11700179 0.5188584 0.27065638 0.16778336 0.7380138 0.50701493 0.17140165 0.32082042
0.40786126 0.44232884 0.26542985 0.27407753 0.49121967 0.37550938 0.22687276 0.47598818
0.3390826 0.5754371 0.6529189 0.36118054 0.074357696 0.6268374 0.55556285 0.5235706

bn1.running_mean f4 [128]
00000000: 1161 1ac2 2079 2ec2 1b55 5a42 a506 5c42
00000010: 5f92 e0c1 5ece 7a42 ec03 7c40 2096 61c2
00000020: 39bd fa42 feb5 db41 0545 67c2 9f65 a9c1
00000030: 1c68 9f42 c3f9 e741 51fe 8842 2de5 4442
00000040: da6b 8541 d140 2bc2 f99e 7a41 6e2a 71c2
00000050: 1aa9 8341 1646 82c3 8449 7440 a8a6 e2c2
00000060: 1b0e 36c2 b715 b8c1 3c7e 0943 af15 81c2
00000070: 13b1 2f43 8568 1043 3c95 aec3 46d3 fa41
00000080: eaa0 e9c1 7a1a 8ec2 9df2 cf41 9661 b642
00000090: a714 aac1 c558 e1c2 8352 96c2 0d20 42c2
000000a0: 7511 3443 1d3d 01c3 1c65 8c42 f3f0 a8c1
000000b0: 15c8 a9bf 1a59 7e41 24e5 9342 f44a 2142
000000c0: 1fa3 2243 ac47 cd40 872f 9841 9e4e 81c0
000000d0: da8d 3843 1514 2a41 d7e6 0f42 5d35 46c2
000000e0: 90b7 2e41 1ae0 b241 073b 88c2 8cf6 c841
000000f0: e71c 94c2 7600 4fc2 113d cac2 2b45 0fc2
00000100: 7f2e 0c42 811a 8e42 1287 afc1 5975 15c3
00000110: 8388 cdc2 37b6 d942 90a6 60c2 f309 29c2
00000120: 76d8 f742 be6d 97c1 e93d 0942 0819 3c42
00000130: 04cc 32c2 07d4 8142 1225 e542 0a01 44c1
00000140: db92 9ac2 bea1 3bc2 43f2 2143 7076 7bc2
00000150: ece0 22c2 b25b 9cc2 6e4f 86c2 336b f842
00000160: 410f 2b42 f845 0243 d784 2442 5ab0 f8c1
00000170: 8a8b 50c2 c1a1 a9c2 c6ef 9642 17e0 a9c1
00000180: df2e 27c2 ed8d 1ec3 ea31 3dc2 2d51 d7c2
00000190: 5a50 1f42 e013 cb42 60b0 8d40 e7fd 1c43
000001a0: 0b00 46c1 7021 cdc2 e37a bdc2 856b 5c41
000001b0: d3d3 c741 87c8 ab42 31bb 7343 df9d a142
000001c0: 2c49 4ec1 8ab0 d641 bced 15c3 6905 04c2
000001d0: 897d 1cc2 4c2b 3342 ecca c543 ef93 2742
000001e0: 7a46 61c2 8ea5 d8c2 d045 cf41 43cc 1ec3
000001f0: 4f3e b042 5f11 bdc1 8c90 97c2 3cb7 73c2
-38.59479 -43.618286 54.58311 55.00649 -28.07147 62.70153 3.9377394 -56.396606
125.369576 27.463863 -57.8174 -21.17462 79.70334 28.996954 68.49671 49.223804
16.677662 -42.813297 15.663812 -60.291435 16.45757 -260.54755 3.816987 -113.3255
-45.513775 -23.010603 137.4931 -64.54235 175.6917 144.40828 -349.1659 31.35316
-29.203571 -71.05171 25.993464 91.1906 -21.260084 -112.67338 -75.161156 -48.5313
180.06819 -129.23872 70.19748 -21.117651 -1.3264185 15.896753 73.94754 40.323196
162.63719 6.414999 19.023207 -4.040847 184.55411 10.629903 35.97543 -49.552113
10.919815 22.359425 -68.11529 25.120384 -74.05645 -51.75045 -101.11927 -35.817547
35.045406 71.051765 -21.940952 -149.45839 -102.766624 108.85589 -56.16266 -42.259716
123.922775 -18.928585 34.31046 47.024445 -44.699234 64.914116 114.5724 -12.250254
-77.28683 -46.90795 161.94633 -62.86566 -40.71965 -78.17909 -67.155136 124.20937
42.764896 130.27332 41.129726 -31.08611 -52.13627 -84.815926 75.46831 -21.234419
-41.795773 -158.5544 -47.298744 -107.65855 39.82847 101.53882 4.42778 156.9918
-12.3750105 -102.56531 -94.74001 13.77625 24.97843 85.891655 243.73122 80.80834
-12.892864 26.8362 -149.92865 -33.005283 -39.122593 44.792282 395.58533 41.894466
-56.318825 -108.32335 25.909088 -158.7979 88.1217 -23.633482 -75.78232 -60.92894

bn1.running_var f4 [128]
00000000: 1530 464a 63a8 7b4a d754 3e4a 7d24 6d49
00000010: cf9b 324a a5e4 b149 436e e749 06d8 a249
00000020: 75b9 ac4a 4d0b a449 498e 634a dcf5 e74a
00000030: 160d 6d4a 71c9 ad49 af5a bd49 569c 9f4a
00000040: 15d0 f949 1d39 8a49 0c9e cb4a b69d 274a
00000050: 154b 214a 4b7f 904a 47ab 5449 647e c44a
00000060: 4a39 4a4a 8ef2 5e4a f140 3c4a 4ec6 de49
00000070: 849a c74a 45ae 674a dbbc a54a cc6e 104a
00000080: 3810 2349 9a7d d749 94b7 704a 83d9 4f4a
00000090: 3a17 bb4a 7337 984a 4439 c04a c07d 8349
000000a0: 6a70 994a b646 d04a e500 a949 5b67 f048
000000b0: 9196 944a 8d48 ad49 2ea0 044a 35a7 704a
000000c0: 8bca 824a 9862 964a 5de7 cf49 2727 1f4a
000000d0: c297 dc4a 4a3a 1e4a 9962 484a cd95 7d49
000000e0: 249c 5549 9f33 1249 8044 654a 09cc 944a
000000f0: c9cf 394a 91e9 3c4a f383 ad4a b681 6f49
00000100: 2461 9c4a 07fc 674a 8c4a 124b 9390 1b4a
00000110: c258 104a 660c 7c4a 6fd8 2b4a f396 a04a
00000120: 0f25 274a da23 9149 b776 9d49 adf5 334a
00000130: de84 354a 625b 9349 a0a7 b34a 694f 214a
00000140: 6f69 964a 4d62 0f4a 00a3 874a 687e 6d49
00000150: ef49 7549 2a91 524a b267 d549 282b dc49
00000160: a1f0 cb4a 6f29 5b4a cc56 294a bc25 c849
00000170: d615 924a d272 364a 661b dc49 f44f 9149
00000180: d6c9 ad49 0857 2e4a 0bad 8149 c651 d74a
00000190: b337 674a 56e8 574a 3346 714a c493 704a
000001a0: 7b8e 8f4a 5655 eb49 449b 284a ccca 2c4a
000001b0: f1fc 6149 064e 1d4a 9e00 434a bb8c 594a
000001c0: e836 134a 50b8 164a 7d8b 8e4a 3e73 4c49
000001d0: 093c fe49 9648 e349 a681 874a 8154 104a
000001e0: 3305 454a 95a1 044a dd2c ac49 7214 814a
000001f0: 2b84 7b4a 3503 124a 5779 234a 9b90 f349
3.2471092e+06 4.1231608e+06 3.1183898e+06 971335.8 2.9263238e+06 1.4573006e+06 1.8958804e+06 1.3340168e+06
5.6598345e+06 1.3438496e+06 3.7282742e+06 7.600878e+06 3.8838455e+06 1.4236621e+06 1.5511899e+06 5.230123e+06
2.0464666e+06 1.1323236e+06 6.672134e+06 2.7462215e+06 2.6426292e+06 4.7348855e+06 871092.44 6.438706e+06
3.3132345e+06 3.6527715e+06 3.0843482e+06 1.8249698e+06 6.54061e+06 3.7958572e+06 5.4308935e+06 2.366387e+06
667907.5 1.7652992e+06 3.943909e+06 3.4054088e+06 6.130589e+06 4.9878335e+06 6.298786e+06 1.077176e+06
5.027893e+06 6.824795e+06 1.3844766e+06 492346.84 4.8689365e+06 1.4195376e+06 2.1729395e+06 3.9428612e+06
4.2857655e+06 4.92782e+06 1.7031476e+06 2.6075618e+06 7.228385e+06 2.5924025e+06 3.2831102e+06 1.0386848e+06
874946.25 598841.94 3.75632e+06 4.8757805e+06 3.0443382e+06 3.0951402e+06 5.6857535e+06 981019.4
5.124242e+06 3.8008338e+06 9.58734e+06 2.5487728e+06 2.3649765e+06 4.1295615e+06 2.8155158e+06 5.2622015e+06
2.7384998e+06 1.1889872e+06 1.2899429e+06 2.9484592e+06 2.9740075e+06 1.2071482e+06 5.886928e+06 2.6429062e+06
4.9286955e+06 2.3492032e+06 4.444544e+06 972774.5 1.00470294e+06 3.4499305e+06 1.7482142e+06 1.803621e+06
6.6827045e+06 3.5907478e+06 2.774451e+06 1.6396075e+06 4.786923e+06 2.9892365e+06 1.8031168e+06 1.1903985e+06
1.4236748e+06 2.856386e+06 1.0623054e+06 7.055587e+06 3.7882688e+06 3.5374295e+06 3.9530368e+06 3.941617e+06
4.7040615e+06 1.9278508e+06 2.762449e+06 2.831027e+06 925647.06 2.5772815e+06 3.1949195e+06 3.5643348e+06
2.411962e+06 2.469396e+06 4.6709105e+06 837427.9 2.0826891e+06 1.8619068e+06 4.440275e+06 2.3647042e+06
3.2279808e+06 2.1730292e+06 1.4104596e+06 4.229689e+06 4.1208428e+06 2.3922692e+06 2.6783578e+06 1.9952834e+06

fc2.weight f4 [160, 128]
00000000: 4f07 0dbf 3728 c8be 7954 11bf 43a7 e43d
00000010: 7633 843e fee7 9dbf b014 a13e 8784 8abf
00000020: c654 05be 8d0a b2be 96ca 9a3e e34c abbe
00000030: e2f4 e7be f9a5 79bf 31ed eb3d 717f c53e
00000040: 7041 48bd 783b 98be 49b3 603e f52e 1e3f
00000050: e665 c33e a362 153f e17b eb3e c4af 99bf
00000060: 8af6 c63d c9b2 77be 5073 793e 40f8 00bf
00000070: 03be 73bf 5949 38bf 948f a33c 7109 0dbf
00000080: 049f 28be fe6a d73e b1c9 09be adf0 10be
00000090: a819 59bf a16b 163e 96d8 50bf b819 343d
000000a0: 3391 08bf 7a0a 2a3e ecbb 21be fcc8 f53e
000000b0: f4ff c03e dfb5 fdbe db0a 98bf 969b 1dbe
000000c0: 6fe7 bb3e f87f b6bf 1edb a8bd a87e cebf
000000d0: 52c7 b2be 2fa6 04bf 5f22 42be d51f 523f
000000e0: 5ae9 e7bc f1c3 2ebd 6ba9 0dbf f793 253e
000000f0: 6e7b e8be 5fd6 103d f268 35bf f227 91be
00000100: 5c13 613e 2b0d 043f 730f debe 3ec4 c03e
00000110: 0f3c b0bf 5279 05be 1215 70bf c10c 2f3b
00000120: 398c 863e 769e d4be 48a3 94be 7fe9 00bf
00000130: 76af 4ebe 06d7 71bf efc5 39bf 17b3 863e
00000140: fa65 d6bd 04be 44be 65f3 25bf fee7 e7bd
00000150: 47a7 8abe 7200 aebf 81c4 24bf 01b5 a9be
00000160: e93a acbe f092 17bf edcb 30bf 4f54 6dbf
00000170: c8dd 93be e849 893e 7ef5 b5bd accd 28be
00000180: 0769 5ebf cf4f 983e d5df 023f a5db ccbd
00000190: 896b 10bf 4282 233f 0309 26bd a690 7fbf
000001a0: 6c2c d03e 2b37 183e 58c5 92bd de9c 943e
000001b0: b9ff 0cbf 7541 48bc 9f9d 7dbf fe10 a1be
000001c0: bdef 26bf 377b 61bf c5ac ba3e ede2 7e3e
000001d0: dc07 a13e 6451 85bf e56c 02bf b2f9 9ebe
000001e0: 50ca 48bf 981b 313e f85c f53e 0268 34bf
000001f0: eebe e23d 4fda f53c 2d19 90be fc51 623e
00000200: 9d3b 53bf 0520 8fbd b6ca f4bd 6584 2a3e
00000210: e4bd e5be e9b9 9fbe 8b7f 873d 4ef9 22bf
00000220: 64fd bc3d ee25 c53d 4416 913e a8d2 0bbf
00000230: 206e 023f c93d a53d 02a8 6d3c 4720 f13e
00000240: fceb 36bf 7f62 cdbe 61da 6cbe f30d 8bbe
00000250: 6ece 643e 082a b5be 1342 a3bf 1b27 b4be
00000260: 6452 63bf ceda 0abf 8eae 9ebe d424 8e3f
00000270: e772 4dbf 9a8d 9ebe 4e15 91be 717b 1c3f
00000280: 6ae2 b5be 4f4f 363f 3046 03bf fc32 113e
00000290: 1839 ebbd c839 de3e 079c e23d f9bc 903c
000002a0: 4420 6bbe 716c febe 3705 9f3f ba35 a2be
000002b0: 5742 743f a2eb 473e 665e 453a 9c56 acbe
000002c0: 6d59 9a3e 4097 1f3f ef6c d13e 660e d1bf
000002d0: d3b2 80bf c553 e2bf c91e c8be ac7d 8b3e
000002e0: 8f72 e9bd 595f 413d 9a61 2a3d 39b0 01be
000002f0: bc32 e6be cc62 3abf 5f37 ab3d caf3 953e
00000300: 8ec9 43bf 369c 04be 0b09 9bbf 4a62 88be
00000310: 8f81 0f3e 082f 72be 3efd 3e3e 816a a0be
00000320: bc8b e13c 12ad 3a3f 5b7b 1d3f 3895 78bf
00000330: 430a 043f 0849 833d 01eb 6e3e 5d3f db3e
00000340: c5d7 8bbe 9273 203d 06e1 133f 5ef7 febb
00000350: 935d 983e d2f5 353f f649 e03e 12ab c23d
00000360: 08fb 4fbf 0603 acbd 5aa9 003f b957 333f
00000370: 14a4 6dbe 898c 1e3e 8762 cbbd 7c1f 1c3f
00000380: f5d3 1b3f aa16 89be 2701 263f ea30 073e
00000390: 5421 a03d 52f8 8f3e b416 04be 6098 81bf
000003a0: 502d d13e 76f7 f13e e62e a0be 2ce4 29bf
000003b0: 737e 28bf 3119 773e 3077 2bbf ac52 873e
000003c0: a257 453d 16ac c53e 105a 1d3e 2add 8abe
000003d0: 710c 5ebe 6516 24bf aa07 3f3d dc34 b03d
000003e0: 7e73 1abf 6a5e 593e b497 ad3e 0ef0 c3be
000003f0: 0dc2 01bf f436 5cbf d078 d2be 821c aa3f
-0.5508928 -0.39093181 -0.5676952 0.11164715 0.25820512 -1.2336423 0.31461096 -1.0821694
-0.1302062 -0.34773675 0.30232686 -0.33457097 -0.45304018 -0.9751888 0.1151985 0.38573793
-0.04889053 -0.2973287 0.21943392 0.617904 0.3816368 0.5835363 0.4599295 -1.2006764
0.09714992 -0.24189295 0.24360394 -0.503788 -0.9521181 -0.7198692 0.019965924 -0.5509253
-0.1646691 0.42073816 -0.13455845 -0.1415431 -0.84804773 0.14689495 -0.81580484 0.04396984
-0.53346556 0.16605559 -0.15794343 0.480049 0.37695277 -0.4955282 -1.1878313 -0.15391383
0.36700007 -1.4257803 -0.08244918 -1.6132402 -0.34917694 -0.51816076 -0.18958424 0.8207982
-0.028309513 -0.042667333 -0.55336636 0.16169725 -0.4540667 0.03536069 -0.7086326 -0.28350788
0.21980041 0.5158259 -0.43371162 0.3764972 -1.3768328 -0.13034561 -0.9378215 0.0026710483
0.26278856 -0.41527146 -0.29030824 -0.50356287 -0.2018412 -0.94468725 -0.7256765 0.2630851
-0.10468669 -0.1921311 -0.64824516 -0.11323546 -0.27080747 -1.3593886 -0.6436234 -0.33145908
-0.33638695 -0.59208584 -0.69061166 -0.9270677 -0.28880143 0.26814198 -0.088847145 -0.16484708
-0.8687901 0.2974839 0.5112279 -0.10002831 -0.56414086 0.6387063 -0.040535938 -0.9983009
0.4065889 0.14864795 -0.071665466 0.2902593 -0.550777 -0.012222637 -0.99068636 -0.31458277
-0.6520956 -0.88078636 0.36459938 0.24891253 0.3145131 -1.0415463 -0.5094741 -0.31049877
-0.78433704 0.17295682 0.47922492 -0.70471203 0.11071573 0.030011324 -0.28144208 0.22101587
-0.8251284 -0.06988529 -0.119527265 0.16652067 -0.44871438 -0.31196526 0.06616124 -0.6366166
0.09228018 0.09626375 0.283373 -0.5461831 0.5094929 0.08068425 0.014505388 0.47094938
-0.71453834 -0.4011421 -0.2313018 -0.2715908 0.22344372 -0.3538363 -1.2754539 -0.35186085
-0.88797593 -0.5424012 -0.3099255 1.1104989 -0.8025345 -0.30967408 -0.28336567 0.61125857
-0.35524303 0.71214765 -0.5127897 0.14179605 -0.11485499 0.4340346 0.11064916 0.017668234
-0.22961527 -0.4969211 1.2423466 -0.31681615 0.95413727 0.1952348 0.000752902 -0.33659828
0.3014635 0.62340164 0.40903422 -1.6332519 -1.0054573 -1.7681814 -0.39085987 0.27244318
-0.113988034 0.04721007 0.041596986 -0.1266488 -0.44960582 -0.72807 0.083601706 0.2928756
-0.76479423 -0.12950215 -1.2112135 -0.2663749 0.14014266 -0.23650753 0.18651292 -0.31331256
0.02753245 0.72920334 0.6151635 -0.9710269 0.5157816 0.06410414 0.23331834 0.4282178
-0.27313057 0.039172716 0.57765234 -0.0077809533 0.2975889 0.7107822 0.43806428 0.09505285
-0.8124242 -0.08399014 0.5025841 0.7005573 -0.23207122 0.15483297 -0.09930902 0.6098554
0.60870296 -0.26775104 0.6484551 0.13202253 0.07818857 0.2811914 -0.12899286 -1.0124626
0.40854883 0.4725911 -0.3128578 -0.6636379 -0.65817946 0.24130704 -0.6697874 0.2643026
0.048179276 0.38607854 0.15366387 -0.2712186 -0.21684434 -0.6409667 0.04663817 0.08603832
-0.6033248 0.21227422 0.33904803 -0.38269085 -0.50686723 -0.8602135 -0.41107798 1.328995

fc2.bias f4 [160]
00000000: 6e51 a03c e5b6 713d 6c72 913d f19d ccbb
00000010: 9f48 133e 3fc6 53bd f6a8 72bd a248 b4bc
00000020: f354 b1bd f88d e4bc 6d11 043e af05 5dbd
00000030: c837 1d3e 4062 85bc 26aa 24bc 69c1 e13d
00000040: ce75 023e ee93 83bd 0ad6 fd3c 2781 7a3d
00000050: 1d6e 2b3c 3369 7fbd bc86 7b3b 3cb2 003d
00000060: c8eb 123e 5cea 623d f01d f63d b577 89ba
00000070: 5811 df3d 4c54 953c c3f6 a63d 0040 7a3c
00000080: 558b 85bc 4f88 cf3d 7bad 38bc 59ed 9c3c
00000090: 0de9 0d3e ddf5 4d3e 7ec9 c93c 5342 a2bb
000000a0: 011b ecbd 72c8 343c a8d1 363d 2bb1 a33d
000000b0: 3518 213d fe95 883d 1e3b 86bd 67c6 a73d
000000c0: 9dca bdbc 120c c2bc 3c17 633d 51d8 fb3c
000000d0: b3cb a33d 7e85 58bc a205 153d 1314 643d
000000e0: b5d0 3abd d532 bc3d cfe7 16bd 5fac dcbc
000000f0: d754 873d f105 5e3c 0e77 123d ba0f 923c
00000100: 1a32 1a3d 97ec 2cbd 0203 9e3d 744d 2b3d
00000110: c65e 76bd be30 10bd cb56 81bd cfcc 0b3e
00000120: 6b02 7dbb 21af 143e 3e67 86bd 09b9 b33d
00000130: c7e4 a8bc 70a2 14bd 409c a03c a050 b4bd
00000140: 4e21 b63d 2756 7c3c eeef 6dbd 0d98 2ebd
00000150: de97 cb3d f9f2 973d bd3c 4c3d b143 923c
00000160: 1f29 123d 84a0 093e 01b2 8c3d 51f1 453d
00000170: 71ae b1bc 063a 8f3d 11ac 183d 5a9a 13bd
00000180: 3c6e 183e 3494 673d 990d 033e dc39 083e
00000190: 6460 86bb 0d89 103b 6a5e e73c 6e28 1b3d
000001a0: 9ac5 7ebd 07e2 86bd 777c eebc aa73 07bd
000001b0: 0b64 29bc 5c7d 6bbd 1a9d d53d 7d0c 07bc
000001c0: f7dd dcbd 553a 1dbc 86b8 99bd 6cb1 92bc
000001d0: 5f90 46bd 08c1 a83d 56c9 2e3e e9b0 603e
000001e0: 3f29 1f3d 4148 40bc 9853 52bc d42a 8d3c
000001f0: 13af 573d e224 193c bf68 343d 73b4 883c
00000200: 390e 853d 16f6 a93d 24e7 7f3d fc62 6e3c
00000210: c124 81bd 5a02 b1bd b75f 813d 032c 5dbb
00000220: 774b 9a3d fe66 c7bc e4b1 a33d 32ad e33d
00000230: ef59 a3bb 9c13 f13d 1d47 613d 5595 4b3c
00000240: 5387 b63d db84 43bc 677a c53d 90b5 f43c
00000250: becc 4c3d f883 a4bd faa1 113e 565c 68bd
00000260: 9041 bc3c 55b3 6c3c ee37 77bd e9e5 573d
00000270: 9357 ea3d 3349 9c3d 665c 5e3c 9b81 043e
0.019570079 0.059012312 0.07101902 -0.006244414 0.14383171 -0.051702734 -0.059243165 -0.02200729
-0.08658781 -0.027899727 0.12897272 -0.0539605 0.1535331 -0.0162822 -0.010050332 0.11023218
0.12740251 -0.064247 0.03098585 0.061158326 0.010463265 -0.062356185 0.0038379868 0.031419978
0.14347756 0.055399284 0.12017429 -0.0010487946 0.1089198 0.018228672 0.08152535 0.015274048
-0.01630179 0.10133421 -0.01127183 0.019156145 0.13858433 0.2011332 0.024632212 -0.004951754
-0.11528588 0.011034118 0.044633538 0.079927765 0.039329726 0.06669234 -0.065542445 0.08192139
-0.023167903 -0.023687396 0.05544208 0.030742796 0.07997837 -0.013215421 0.036382325 0.055683207
-0.045609195 0.09189383 -0.036842164 -0.026937662 0.06607979 0.013551221 0.03575807 0.017829765
0.037645437 -0.042217817 0.077154174 0.041821912 -0.060148977 -0.035202734 -0.063153826 0.13652347
-0.0038606178 0.14519931 -0.06562661 0.08775527 -0.020616902 -0.036287725 0.019605756 -0.088044405
0.08893071 0.0154014 -0.058090143 -0.042625476 0.09941076 0.0741939 0.049862612 0.017854543
0.035683747 0.13440138 0.06869889 0.04832584 -0.021689625 0.06993489 0.03727347 -0.036035873
0.14885801 0.056537822 0.12798156 0.13303322 -0.004100846 0.0022054345 0.028243262 0.037880354
-0.062200166 -0.0658608 -0.029112084 -0.03306929 -0.0103387935 -0.0574926 0.10430355 -0.0082427235
-0.10784524 -0.009596427 -0.07505898 -0.017906867 -0.048477527 0.08239943 0.17068991 0.21942486
0.038857695 -0.011735977 -0.012837313 0.017232336 0.0526572 0.009347172 0.044045206 0.016687607
0.064968534 0.0829889 0.062476292 0.014549967 -0.063058384 -0.08643027 0.06317084 -0.0033748157
0.07533925 -0.024341103 0.07992914 0.11117019 -0.004985086 0.11771318 0.05499946 0.01242574
0.0891253 -0.011933531 0.09642487 0.029871732 0.049999945 -0.080329835 0.14221945 -0.056728683
0.022980481 0.014447053 -0.060356073 0.052709494 0.11442485 0.07631149 0.013571834 0.12940066

bn2.weight f4 [160]
00000000: bde9 9a3f 338f 613f 6e3b 813f 901c b53f
00000010: 24d8 ad3f afb8 8b3f b613 883f 18cb 8e3f
00000020: 6d12 b03f fd94 d93f af6b b23f bf43 c13f
00000030: 8611 9b3f b006 343f 59e0 ab3f edad 9a3f
00000040: e5a7 933f 7d7d e73f 7b15 823f 3a51 8e3f
00000050: a652 7e3f 4769 993f 2b8c 8c3f 88c7 ad3f
00000060: 3b4f 8b3f 52d4 863f 1085 aa3f 74a4 a13f
00000070: feff aa3f 00c2 863f 21ca 823f 539d 893f
00000080: 2772 983f 68ee ac3f ac00 803f 5d6d be3f
00000090: b109 a23f 1be5 713f 25b0 7f3f d803 d53f
000000a0: b403 c63f 240d 9d3f daaa 9b3f c474 d03f
000000b0: 34aa 9c3f b6b2 933f 3ee2 4b3f e3f5 843f
000000c0: 7382 ac3f f121 893f d106 be3f 3354 933f
000000d0: d009 a03f 34bf f63f 5ed6 563f 7f90 e93f
000000e0: 881c ad3f b69d 8e3f d032 dc3f d2c0 c03f
000000f0: ddf7 923f ec8c 773f 4869 bf3f ccda bd3f
00000100: bd01 493f 61c5 c83f ba10 a83f 3c5f a13f
00000110: 47f2 be3f 305e 923f 3906 d23f d2cf a73f
00000120: 0e6d a53f c68b de3f d8c6 8e3f a1f9 953f
00000130: e7f6 873f da9b 3a3f 1a46 433f 1770 893f
00000140: 1e46 813f 8216 923f 9c16 9d3f f642 653f
00000150: cf8a 933f 9013 823f 70e0 b93f bd34 6b3f
00000160: c6ad a03f 709f 763f b9b2 873f a705 a93f
00000170: 3b1e 953f bd39 953f 795a 513f 2066 1840
00000180: 0807 8e3f f43b 753f c37c 8d3f 5361 833f
00000190: 3e74 843f dfdb 883f d67b c33f 8c38 913f
000001a0: 3b9b 973f 040f 933f e590 813f 879f df3f
000001b0: 6d97 a53f b969 963f a55a 9a3f b2c4 bd3f
000001c0: 761b 893f 211f b93f 5846 b23f adc0 d43f
000001d0: 8656 da3f f8e6 613f 09fc 9f3f 80cd 823f
000001e0: b524 a43f 72c1 933f 72a0 9a3f b32b 773f
000001f0: 83fa a53f 4311 a43f 64f8 aa3f 15ce c33f
00000200: 5ce0 853f 97e1 693f 6293 a43f 4641 863f
00000210: 493b 9b3f 649a 743f 0b50 9c3f 7a01 983f
00000220: b661 b13f 4ba9 8d3f 8325 823f ee09 b83f
00000230: ee19 ad3f 568c ab3f d212 963f 9d0b 833f
00000240: 361d 663f 6c69 803f a493 c93f bb83 cd3f
00000250: db48 793f adb9 9d3f ab8c 873f ecd4 a23f
00000260: 0b16 623f 7677 c03f f09f ab3f eec6 bd3f
00000270: 5ad6 b63f fff2 d03f 02dc 8a3f 3d5b 9e3f
1.2102581 0.8810913 1.0096262 1.4149342 1.3581586 1.0915736 1.0631015 1.1155729
1.3755623 1.6998593 1.3939112 1.50988 1.2114723 0.70322704 1.342784 1.2084328
1.1535612 1.8085171 1.0162805 1.1118538 0.9934486 1.1985253 1.0980276 1.3576517
1.0883554 1.0533545 1.3321857 1.2628312 1.3359373 1.0527954 1.0217935 1.0751137
1.1909837 1.3510256 1.0000205 1.4877125 1.2659208 0.9449021 0.9987815 1.6641798
1.546988 1.2269635 1.2161515 1.6285634 1.2239442 1.1538913 0.79642093 1.0387539
1.347731 1.0713483 1.484583 1.151007 1.2502995 1.92771 0.8392085 1.8247222
1.3524332 1.114188 1.7203007 1.5058844 1.1481892 0.96699405 1.4954004 1.4832397
0.7851828 1.5685235 1.3130105 1.2607188 1.4917687 1.1434994 1.6408149 1.3110297
1.2923906 1.7386405 1.1154432 1.1716806 1.0622224 0.7289406 0.7627884 1.0737332
1.0099523 1.1413119 1.2272525 0.895553 1.1526736 1.016222 1.4521618 0.9187735
1.2553031 0.9633703 1.0601417 1.320485 1.1649851 1.1658245 0.81778675 2.3812332
1.1095896 0.95794606 1.1053699 1.0264076 1.0347974 1.0692099 1.5272167 1.1345382
1.1844248 1.1488957 1.0122343 1.7470559 1.2936836 1.1751014 1.2058913 1.4825652
1.0711505 1.4462625 1.3927717 1.66213 1.7057655 0.88243055 1.249879 1.0218964
1.2823702 1.154341 1.2080214 0.96551055 1.2967075 1.2817768 1.3357053 1.5297266
1.0459094 0.9135985 1.2857478 1.048867 1.2127467 0.9554808 1.2211927 1.1875451
1.3857944 1.1067289 1.0167698 1.437803 1.3523538 1.3402202 1.1724494 1.0237919
0.8988832 1.0032172 1.5748181 1.6055826 0.97376794 1.2322289 1.0589803 1.2721229
0.88314885 1.5036457 1.3408184 1.4826334 1.4284165 1.6324157 1.0848391 1.2371594

bn2.bias f4 [160]
00000000: ee85 b5bd b93d c3be e2b5 e5be 18c4 d5be
00000010: d8e2 cfbe 9101 e9be 6f73 0cbf 628e f4be
00000020: c328 e9be c6cc b4be 79a3 cabe 46ca f3be
00000030: 2bb9 f4be d0a4 2ebe 7447 c6be bb3f c8be
00000040: ac18 eebe 0df9 ccbe 2127 e5be 2747 ffbe
00000050: 9266 f1be aac0 cb3e 7e66 13bf 1ca4 e7be
00000060: 9cfe 04bf fe6b e6be 7ebb d2be af2f 13bf
00000070: 714d f6be 6267 d8be f9f4 e1be 1cb5 02bf
00000080: 4f10 15bf 3957 ddbe 062a eabe 8f75 97be
00000090: 0281 15bf afac cabe 5171 d2be dec8 40be
000000a0: 6a28 3dbe 5fcd 09bf fc65 2ebf d30a 8dbe
000000b0: 3f55 08bf f576 02bf d69d e8be 9035 f8be
000000c0: eba7 25be 3249 0abf 63eb 093f 58da d2be
000000d0: 4aba 00bf 8cce d2bd f2f8 87be 2364 b6be
000000e0: b318 30bf b6d0 03bf 76a1 03bf db39 debe
000000f0: 9d84 fbbe eff7 b9be f006 00bf 63b0 00bf
00000100: bd60 b53e 3ec7 b1be c3aa 1dbe 1e80 d6be
00000110: b181 e23e b624 fcbe f25e b1be 6b46 32bc
00000120: be5a febe 1c53 a4be 32b2 05bf 86c8 1abf
00000130: 8c53 eebe 1111 5bbe 4549 ecbe 2e2b 9ebe
00000140: 4e9b dcbe e982 b0be fbb0 64be db00 c4be
00000150: c05d e1be 4328 09bf a862 f6be a9fe e2be
00000160: c4ac dcbe 352e b3be 41a5 a73d 5e86 cdbe
00000170: 6b06 16bf 0587 eabe 9ac0 f8be bf7b bdbf
00000180: f696 1bbf d7ec d2be 74c8 c8be 4ddb cdbe
00000190: d9ae e5be bd80 8cbe 5f1c d3be 8d5a f8be
000001a0: 9716 0ebf 62f3 febe 6c56 00bf cab9 fdbe
000001b0: debf a8be 3c6e f1be 1d6f 14bf b3f0 e6be
000001c0: b7e4 05bf e966 04bf 1ff4 c2be 7bf1 dbbe
000001d0: da5a e83b 4bde e7be d8a9 12bf a149 b5be
000001e0: dbcc c2be 4bbd edbe 9454 b2be 6c79 a6be
000001f0: ab9c dabe 32a6 07bf a307 07bf 3f99 07bf
00000200: f550 e5be c535 a5be ff83 94be a0ff f2be
00000210: fe79 ffbe 2ee6 ddbe 43a6 02bf c876 febe
00000220: 8fb0 d3be 9c72 efbe 1b1b 05bf 3c27 e8be
00000230: 3f33 ebbe 2595 03bf df7c f3be 7450 c0be
00000240: 338e e1be 96c4 f5be fe3f f8be f41b 64bf
00000250: 86ca dbbe 6118 90be 8121 febe a73f 07bf
00000260: 5b82 f7be 761d dabe af3b cebe b184 81be
00000270: 10d8 edbe ce0d 67be ca65 06bf e9e6 e9be
-0.08863436 -0.38133028 -0.44865328 -0.4175117 -0.40602756 -0.45509008 -0.5486364 -0.4776488
-0.4553891 -0.3531248 -0.39577845 -0.4761526 -0.47797522 -0.17055058 -0.3872639 -0.39111122
-0.46503198 -0.4003376 -0.44756415 -0.49858972 -0.47148567 0.3979543 -0.57578266 -0.45242393
-0.51951003 -0.45004267 -0.4115867 -0.57494634 -0.48105958 -0.42266375 -0.44132212 -0.510576
-0.5822801 -0.43230608 -0.45735186 -0.29581878 -0.58399975 -0.39584872 -0.4110208 -0.18826625
-0.18472448 -0.53828996 -0.68124366 -0.2754732 -0.53255075 -0.50962764 -0.4543292 -0.48478365
-0.16177337 -0.5401794 0.53874797 -0.41182208 -0.50284255 -0.10293302 -0.26557118 -0.35623273
-0.6878769 -0.5149034 -0.51418245 -0.43403515 -0.49124613 -0.3632197 -0.50010586 -0.50269145
0.35425368 -0.34722322 -0.15397172 -0.4189462 0.44239572 -0.49246758 -0.3464275 -0.010881047
-0.49678606 -0.32094657 -0.5222503 -0.60462224 -0.46548116 -0.21393229 -0.4614965 -0.30892318
-0.43087238 -0.34474877 -0.22333138 -0.38281903 -0.44016838 -0.5357706 -0.48122144 -0.44334915
-0.4310056 -0.3499619 0.081858166 -0.40141577 -0.58603543 -0.45806137 -0.48584443 -1.4803389
-0.60777223 -0.4119632 -0.39215434 -0.40206376 -0.4485996 -0.2744197 -0.41232583 -0.48506585
-0.5550322 -0.4979506 -0.5013187 -0.49555808 -0.32958883 -0.47154415 -0.57982045 -0.45105514
-0.52302116 -0.5171953 -0.38076875 -0.42957672 0.0070909085 -0.45286784 -0.5729041 -0.35407737
-0.38046917 -0.46433482 -0.34830153 -0.32514513 -0.42697653 -0.5298797 -0.5274603 -0.5296821
-0.44788328 -0.32267585 -0.29006955 -0.4746065 -0.4989776 -0.43339676 -0.51034945 -0.49699998
-0.4134564 -0.46767128 -0.51994485 -0.45342433 -0.45937535 -0.5139945 -0.47556207 -0.3756138
-0.44053802 -0.48001546 -0.48486322 -0.89105153 -0.4292795 -0.281436 -0.49634936 -0.528315
-0.4834164 -0.42600602 -0.4027991 -0.25296548 -0.46453905 -0.2256386 -0.5249907 -0.45683983

bn2.running_mean f4 [160]
00000000: ec39 97c1 cadb 4ec0 13be 2fc1 6b1d 84c1
00000010: de09 8fc1 0b6e 45c1 b86a 3cc1 8333 5dc1
00000020: 415d 98c1 6ab5 b7c1 f225 92c1 6213 98c1
00000030: d608 8cc1 cb6f fac0 0b2d 9cc1 9054 80c1
00000040: 3615 7ec1 785d e1c1 f2cf 35c1 3508 87c1
00000050: 44d0 52c1 b058 cf41 b9ec 8bc1 3908 94c1
00000060: 1c5e 46c1 d39f 03c1 bff9 a3c1 1cfb 7cc1
00000070: 4f2b 8ec1 8231 75c1 e433 5bc1 af7b 48c1
00000080: ca01 68c1 60c0 97c1 68a6 1ac1 baca a8c1
00000090: dc0f 58c1 3983 43c1 2c29 42c1 2be6 b6c1
000000a0: 1054 96c1 0e79 79c1 59c2 92c1 e874 b1c1
000000b0: 752b 71c1 00c3 8ec1 c933 c2c0 bb87 32c1
000000c0: 6192 b6c1 a183 26c1 b349 0742 fd7d 6dc1
000000d0: caad 34c1 97da ebc1 1e4d 2cc1 9a85 cac1
000000e0: a85f 59c1 a6e4 48c1 f53f 99c1 3629 9bc1
000000f0: 402c 4bc1 ab79 3dc1 602b 95c1 d488 a4c1
00000100: a4e5 7641 3c82 bac1 f4d6 a3c1 a350 85c1
00000110: bcb6 d041 0787 0bc1 272b b6c1 6335 afc1
00000120: adf4 64c1 4e2a c2c1 546b 6fc1 1c41 73c1
00000130: 6de8 44c1 a032 07c1 06a2 cf41 2d5f 8ac1
00000140: 7926 31c1 8cf6 41c1 1a30 85c1 f257 21c1
00000150: 1100 68c1 ad3a 56c1 ea36 a8c1 406d 08c1
00000160: afda 81c1 12d3 30c1 6d55 e541 8c21 b1c1
00000170: 6a15 71c1 e059 44c1 e945 08c1 28ac 1742
00000180: 7f62 3dc1 c9fb 3ac1 eab0 64c1 5d46 25c1
00000190: 6dca 72c1 e7d9 83c1 8fac dac1 783d 56c1
000001a0: 2ec9 51c1 5aa3 78c1 d60a 25c1 a528 c4c1
000001b0: 5500 9dc1 3640 8fc1 f561 50c1 179d bbc1
000001c0: fa96 69c1 2b99 a4c1 3e60 acc1 a45c bbc1
000001d0: 8dc6 f1c1 ddb3 17c1 9060 5cc1 11a3 1fc1
000001e0: 7c07 93c1 78ff 67c1 560c 8ac1 98a9 a8c0
000001f0: 1c00 aec1 4316 93c1 ae7d 7fc1 dab4 9dc1
00000200: 9d50 35c1 6ed3 3dc1 6548 92c1 ec7d 60c1
00000210: 742d 7ec1 35c0 3ac1 c08b 55c1 9996 57c1
00000220: 212c 90c1 b292 55c1 738b 3dc1 1ed0 acc1
00000230: da2e 80c1 3966 71c1 c68b 28c1 5532 1cc1
00000240: 976d 3bc1 2925 3cc1 3958 99c1 30c6 fa41
00000250: d4be 37c1 6ba7 97c1 0fa4 64c1 7b2a 5bc1
00000260: 4bd9 20c1 1983 b4c1 50d1 93c1 fcd0 c4c1
00000270: 9fd2 9cc1 2376 e4c1 30ce 3fc1 b2b6 6cc1
-18.903282 -3.2321649 -10.983905 -16.514364 -17.879818 -12.339366 -11.776054 -13.825076
-19.045534 -22.963581 -18.268528 -19.009464 -17.504314 -7.8261466 -19.521994 -16.04129
-15.880178 -28.170639 -11.363268 -16.879007 -13.175846 25.918304 -17.490587 -18.504015
-12.397976 -8.22652 -20.496946 -15.811306 -17.771147 -15.324587 -13.700169 -12.530196
-14.500437 -18.968933 -9.665627 -21.098988 -13.503872 -12.219537 -12.135052 -22.862387
-18.791046 -15.592054 -18.344896 -22.182083 -15.07311 -17.845215 -6.0688214 -11.158137
-22.821474 -10.407136 33.82197 -14.843259 -11.292429 -29.481733 -10.768827 -25.315235
-13.585854 -12.555822 -19.156229 -19.395123 -12.698303 -11.842204 -18.64618 -20.56681
15.431065 -23.313591 -20.479958 -16.664373 26.089226 -8.720466 -22.77107 -21.901068
-14.309735 -24.270657 -14.963703 -15.203396 -12.306745 -8.44986 25.954113 -17.296473
-11.071893 -12.122692 -16.648487 -10.083971 -14.500016 -13.389325 -21.026814 -8.526672
-16.23178 -11.051531 28.666712 -22.14138 -15.067728 -12.271942 -8.517068 37.91812
-11.836547 -11.686471 -14.293192 -10.329679 -15.17442 -16.481398 -27.334257 -13.390007
-13.111616 -15.539881 -10.3151455 -24.519846 -19.625162 -17.906353 -13.023915 -23.451704
-14.5993595 -20.57479 -21.546993 -23.420235 -30.221949 -9.481412 -13.773575 -9.977311
-18.378654 -14.49987 -17.256023 -5.2707024 -21.750053 -18.38587 -15.9681835 -19.713306
-11.332181 -11.864119 -18.285349 -14.030743 -15.886097 -11.671926 -13.346619 -13.474267
-18.021547 -13.348314 -11.846545 -21.60162 -16.022877 -15.087457 -10.534124 -9.762288
-11.714255 -11.759072 -19.168077 31.346771 -11.484089 -18.956747 -14.290053 -13.697871
-10.05305 -22.564013 -18.477203 -24.602043 -19.602842 -28.557684 -11.987839 -14.794603

bn2.running_var f4 [160]
00000000: 416d 1b43 33f3 8842 c158 9c42 cb49 0a43
00000010: 9d85 f842 ed4a b342 7485 ad42 bd2e bf42
00000020: 5d4b 1643 c55f 2b43 de45 1c43 c2db 3043
00000030: 9fb1 4943 e0a8 9042 30a4 2043 98d9 0c43
00000040: 3e9d 1043 7ab2 a643 0f93 c142 26d8 f742
00000050: ece5 bd42 9719 9f43 642b f342 948e 1943
00000060: 1702 c542 d16c 8442 0e54 2b43 3f9f fa42
00000070: a67e 4043 e506 0b43 82e6 e842 388a 9a42
00000080: 651b e042 f0c7 2e43 a677 a142 9f13 4e43
00000090: 51e5 bc42 0221 c342 3a42 c442 2db4 5243
000000a0: c7ec 4143 76ac 2243 9c6d 3243 6884 3643
000000b0: b768 fa42 7d54 1c43 e11d 3b42 f30d b742
000000c0: 5a31 6c43 0804 aa42 114b c443 d192 e542
000000d0: 111a ce42 c15b af43 8fc7 ca42 45fa 9843
000000e0: 8458 eb42 f3e0 b242 f422 1d43 7fa8 4343
000000f0: 6a87 d442 bd71 c142 40f8 4243 c7ab 2b43
00000100: a3dc 0743 1e48 8343 ef79 4843 70d8 fc42
00000110: 6a3e 8243 9970 8742 7c0c 6843 a61c 5743
00000120: faeb eb42 57ba 5243 2f2f 0c43 2c27 bc42
00000130: 3155 da42 7c9d 5f42 f08f 9943 fe0b fb42
00000140: 9778 8342 de94 fa42 7772 1243 40fa ad42
00000150: 5652 d042 0b24 dd42 ad0a 3843 f73d 8d42
00000160: 216b f042 1d99 9642 e52e a143 e99a 6c43
00000170: 602c 0743 da42 dc42 36a0 6e42 d1b5 0f44
00000180: c770 d742 04a6 b542 f7eb db42 fb69 d142
00000190: 1eb7 0243 22b8 f342 23ba 8843 5c5b ed42
000001a0: 2f12 f942 5fb0 fe42 552a b242 f30b 8f43
000001b0: 49ff 4f43 be84 0343 0068 d442 c9a0 5943
000001c0: 46de da42 8c3c 6043 5a03 7943 e51e 5743
000001d0: 9386 9843 29d3 7242 ebb7 0443 2d46 a642
000001e0: e7a8 2643 26c9 ed42 28a8 1a43 7b15 7542
000001f0: 799b 3d43 745f 1043 4d8b 1743 d4ca 3f43
00000200: 7c5a bb42 2304 9e42 3d64 7143 3fed 0043
00000210: dc3f db42 0e78 c042 a2c9 ea42 722e e542
00000220: d5ff 2343 4bab df42 c34c d342 4771 3c43
00000230: fc51 1b43 2642 b242 c638 a742 99b4 aa42
00000240: 98a6 b942 bd6c c642 054a 5343 8dd5 ad43
00000250: 3b5a ba42 e9e1 3a43 9d41 d842 1e80 be42
00000260: fc16 a542 7c2f 5243 7ef5 2f43 cc64 4d43
00000270: 5777 0243 0bca 8343 2502 e642 3d2d 3543
155.42677 68.475 78.17335 138.28825 124.26096 89.64634 86.76065 95.591286
150.29439 171.3741 156.27292 176.85843 201.69383 72.329834 160.64136 140.84998
144.61423 333.39435 96.787224 123.922165 94.949066 318.19992 121.58475 153.55695
98.50408 66.21253 171.32834 125.31103 192.49472 139.02693 116.45021 77.26996
112.053505 174.781 80.73369 206.07664 94.44788 97.56447 98.12935 210.70381
193.92491 162.67368 178.42816 182.51721 125.20452 156.33003 46.77918 91.527245
236.19278 85.00787 392.58646 114.78675 103.05091 350.71683 101.38976 305.95523
117.67288 89.439354 157.13654 195.65819 106.26448 96.722145 194.96973 171.671
135.86186 262.56342 200.4763 126.42273 260.4876 67.71992 232.04877 215.11191
117.96089 210.72789 140.18431 94.07651 109.16639 55.903793 307.1245 125.52342
65.73553 125.29076 146.44713 86.98877 104.16081 110.5704 184.0417 70.621025
120.209236 75.29905 322.36636 236.60512 135.17334 110.13057 59.656456 574.8409
107.72027 90.82425 109.96087 104.70699 130.7153 121.859634 273.4542 118.67844
124.535515 127.344475 89.08268 286.09335 207.99721 131.51852 106.203125 217.62807
109.43413 224.23651 249.01309 215.12068 305.05136 60.70621 132.71843 83.13706
166.65977 118.89287 154.65686 61.270977 189.60732 144.37286 151.54414 191.7923
93.67673 79.00808 241.39156 128.92674 109.624725 96.23448 117.393814 114.59071
163.99934 111.83456 105.649925 188.44249 155.32025 89.129196 83.610886 85.35273
92.82538 99.21238 211.28914 347.66837 93.17623 186.88246 108.12815 95.25023
82.54489 210.18549 175.95895 205.39374 130.46617 263.57846 115.00419 181.17671
